pytorch/graph.model (torch, 252295 bytes, 10 tensors)

weight f4 [6, 3, 5, 5]
0.058963314 -0.40476632 0.37988722 -0.18021536 -0.04774059 0.01179503 -0.70677745 0.40134647
-0.40686706 -0.075092435 0.19965424 -1.045127 0.39346573 -0.649877 -0.23136798 0.6732144
-0.3714102 1.0970691 -0.124412306 0.22186404 0.09988131 -0.42304745 0.3355717 -0.32276788
-0.08018884 0.08582095 -0.35437474 0.4464344 -0.06601933 0.13292196 0.20677587 -0.48166287
0.5952424 -0.19342421 0.17079699 0.20109767 -0.6088618 0.71230274 -0.22436596 0.094398685
0.6358996 -0.23641856 1.2684131 0.080363296 0.49029773 -0.101538464 -0.67003554 0.22856513
-0.5443846 -0.12152432 0.17980997 -0.2570706 0.32289526 -0.19840348 -0.003019597 0.33693326
-0.5297299 0.30203 -0.24660908 0.030423949 0.15624999 -0.7055442 0.435925 -0.49168956
0.1637259 0.5664613 -0.38823554 0.8094524 -0.27793834 0.29410517 -0.14996766 -0.6465863
0.13240956 -0.5623429 -0.121746615 0.18307555 0.45128396 0.67193764 0.3072235 0.36156404
0.17625996 0.49392846 0.42192808 -0.32013187 0.20840757 0.18718833 0.3221336 0.06562529
-0.3937511 0.317158 0.12910229 -0.010142289 -0.41877294 -0.5273696 0.30629954 -0.41448766
-0.3452694 -0.30591598 -0.11207719 0.1915625 -0.17875645 -0.054159544 -0.24379729 -0.565053
-0.4579296 0.14384724 0.16707377 -0.3104895 -0.80542916 -0.24564904 0.3084674 0.058734868
-0.45191103 -0.87955034 0.15158434 0.26209208 -0.100084886 -0.5569184 -0.63807344 0.48778117
0.14030056 -0.09149587 -0.21395423 -0.026292946 0.6108739 -0.12564597 0.115229 0.068937644
0.022983257 -0.08240644 0.013552373 0.09018341 0.13937774 -0.51035285 0.03714162 0.23183234
0.26432985 -0.21301968 -0.6575752 0.48736858 -0.017214254 -0.036556974 -0.4438201 -0.34709767
0.56143546 0.040809754 -0.109717555 -0.029692724 0.23427281 0.6191012 -0.10011325 0.11059089
-0.73225963 -0.44567218 0.76779294 0.13504052 0.56862664 -0.054732215 -0.9055483 0.16969109
-0.16811185 0.23073642 0.60372066 -0.129023 -0.3898546 -0.17096345 -0.19252577 0.27339667
0.23930198 -0.111380644 0.03543855 -0.24460961 0.11042672 0.080924936 0.2049759 0.14451604
0.2757764 -0.46453777 -0.405479 0.7684569 0.14244603 0.6796094 -0.026209695 -1.0514221
0.13025954 -0.072867 0.2501497 0.4850943 -0.20450293 -0.37825456 -0.042773116 -0.08587945
0.071072064 0.0059899953 -0.13229847 0.16199012 -0.2427334 -0.0144705605 0.09566661 0.124499224
0.063301034 0.04525917 -0.62754464 -0.5160086 0.4722789 0.23025312 0.69229984 -0.080640145
-1.0179151 -0.06241266 -0.09329527 0.45429042 0.53505844 -0.21253043 -0.41636807 -0.0009351395
-0.008196981 0.3621323 0.046737265 -0.18562374 0.15100896 -0.06479993 0.048008084 0.009979395
-0.07527727 0.1680745 0.042640906 -0.30593744 -0.36921272 -0.22437976 -0.35925493 -0.68987215
-0.46244937 -0.26836532 -0.08641236 -0.16975324 -0.13322954 0.041971542 0.098872475 -0.030617297
0.18674442 0.5317452 0.5449616 0.43440676 0.06086828 0.18470602 0.2731708 0.13433099
0.11855682 0.084218316 0.418155 0.14873563 -0.12005609 0.046093572 -0.007385145 -0.23338282
00000000: 8483 713d 883d cfbe 9480 c23e 608a 38be
00000010: a38b 43bd f13f 413c 5eef 34bf 497d cd3e
00000020: e150 d0be 10ca 99bd 2972 4c3e b9c6 85bf
00000030: 5774 c93e 575e 26bf baeb 6cbe c757 2c3f
00000040: 7a29 bebe c36c 8c3f e1cb febd 5430 633e
00000050: 928e cc3d ad99 d8be 0ed0 ab3e d541 a5be
00000060: 0c3a a4bd e5c2 af3d 9b70 b5be 0d93 e43e
00000070: 2435 87bd b21c 083e 0ebd 533e 849c f6be
00000080: ce61 183f ff10 46be 68e5 2e3e 8cec 4d3e
00000090: 5ede 1bbf 7959 363f 31c0 65be 1954 c13d
000000a0: 51ca 223f b517 72be 5c5b a23f 8395 a43d
000000b0: 4e08 fb3e 66f3 cfbd 7387 2bbf fa0c 6a3e
000000c0: ca5c 0bbf bee1 f8bd 1b20 383e c29e 83be
000000d0: 8752 a53e 482a 4bbe 6ee4 45bb 8482 ac3e
000000e0: 619c 07bf ada3 9a3e 1787 7cbe a53b f93c
000000f0: ffff 1f3e 8b9e 34bf 9031 df3e bcbe fbbe
00000100: c3a7 273e 9c03 113f cfc6 c6be 4638 4f3f
00000110: ef4d 8ebe f494 963e 1f91 19be ae86 25bf
00000120: 5f96 073e b4f5 0fbf 4a56 f9bd 2878 3b3e
00000130: b10e e73e 1b04 2c3f 664c 9d3e ec1e b93e
00000140: 7e7d 343e 31e4 fc3e f506 d83e 53e8 a3be
00000150: cb68 553e 4cae 3f3e b2ee a43e 8d66 863d
00000160: bf99 c9be 8962 a23e 6433 043e d82b 26bc
00000170: 6869 d6be b201 07bf 4bd3 9c3e ba37 d4be
00000180: 27c7 b0be 05a1 9cbe ba88 e5bd f628 443e
00000190: ee0b 37be 66d6 5dbd ffa5 79be 50a7 10bf
000001a0: c075 eabe b14c 133e 6315 2b3e 7bf8 9ebe
000001b0: 9b30 4ebf 6c8b 7bbe 70ef 9d3e f993 703d
000001c0: e260 e7be 362a 61bf ed38 1b3e ef30 863e
000001d0: 4ef9 ccbd 3492 0ebf c858 23bf 74be f93e
000001e0: f3aa 0f3e 3062 bbbd d116 5bbe 4e64 d7bc
000001f0: 3b62 1c3f 56a9 00be 2ffd eb3d 2e2f 8d3d
00000200: 6247 bc3c b5c4 a8bd c60a 5e3c 14b2 b83d
00000210: 0ab9 0e3e 7ca6 02bf d021 183d 7565 6d3e
00000220: 3e56 873e d521 5abe d956 28bf 6088 f93e
00000230: e804 8dbc c4bc 15bd 633c e3be c9b6 b1be
00000240: 3cba 0f3f 2128 273d 99b3 e0bd 283e f3bc
00000250: 36e5 6f3e 6b7d 1e3f 2d08 cdbd 7a7d e23d
00000260: 5e75 3bbf 252f e4be 148e 443f 1048 0a3e
00000270: 8491 113f e32e 60bd 03d2 67bf 80c3 2d3e
00000280: 8325 2cbe 2b46 6c3e 708d 1a3f 9b1e 04be
00000290: 069b c7be 0b11 2fbe 7a25 45be a6fa 8b3e
000002a0: 940b 753e 891b e4bd 0328 113d f17a 7abe
000002b0: 6727 e23d f9bb a53d 34e5 513e 03fc 133e
000002c0: 9032 8d3e e5d7 edbe f29a cfbe 97b9 443f
000002d0: 5fdd 113e e2fa 2d3f b7b5 d6bc 0095 86bf
000002e0: c262 053e 4b3b 95bd 9f13 803e 485e f83e
000002f0: 3769 51be 95aa c1be dd32 2fbd 91e1 afbd
00000300: 3b8e 913d b947 c43b 4079 07be bde0 253e
00000310: 1b8f 78be ee15 6dbc dbec c33d 73f9 fe3d
00000320: f9a3 813d ae61 393d c4a6 20bf 2419 04bf
00000330: 8ace f13e 79c7 6b3e 903a 313f a926 a5bd
00000340: 0b4b 82bf 6ba4 7fbd 9711 bfbd c198 e83e
00000350: 97f9 083f 94a1 59be 322e d5be 2624 75ba
00000360: a14c 06bc 6869 b93e 936f 3f3d 2614 3ebe
00000370: 18a2 1a3e d3b5 84bd 20a4 443d 9e80 233c
00000380: f82a 9abd b91b 2c3e 3ba8 2e3d d5a3 9cbe
00000390: 7309 bdbe cfc3 65be 43f0 b7be 769b 30bf
000003a0: 2ac6 ecbe 2e67 89be f7f8 b0bd cbd3 2dbe
000003b0: 536d 08be 5aea 2b3d a77d ca3d 20d1 fabc
000003c0: ee39 3f3e 7420 083f 9a82 0b3f 906a de3e
000003d0: 0451 793d 9323 3d3e 0bdd 8b3e 108e 093e
000003e0: ebcd f23d a77a ac3d 6a18 d63e 274e 183e
000003f0: f8df f5bd 9dcc 3c3d 16ff f1bb e8fb 6ebe

bias f4 [6]
-0.28305224 -0.42959905 -0.26593763 -0.37208524 0.28876108 -0.71482754
00000000: 39ec 90be 68f4 dbbe fa28 88be f581 bebe
00000010: 7ed8 933e f0fe 36bf

weight f4 [16, 6, 5, 5]
-0.021706795 -0.05972039 -0.11165883 -0.003891825 -0.049452275 0.20042825 0.07545055 -0.021704972
0.1385343 -0.043406136 0.14155705 0.13897604 0.049733378 0.19348854 0.21756339 0.09419716
0.28199762 0.17455046 0.2491166 0.22747286 0.12358467 0.26650882 0.2278523 0.35301402
0.20440564 0.01773775 0.057206273 -0.12097649 -0.0034202172 -0.08484503 -0.022779373 0.14739491
-0.030843271 0.05714955 -0.12272366 0.15909722 0.077199146 -0.016272109 0.02694331 -0.06349949
0.13748933 0.067758895 0.027161758 0.06883568 -0.28662878 -0.009443259 0.09351481 -0.15012585
-0.058611542 -0.2108867 0.09115997 -0.032750294 -0.121490754 -0.032053526 -0.14011142 0.102797106
-0.0041328324 0.05824501 0.11671396 0.04946025 -0.1233965 0.1319245 0.11972895 0.1784161
-0.020737791 -0.09797528 -0.0039176526 0.052021295 0.13727345 -0.14202501 -0.019994909 -0.014643674
0.07468743 0.15181193 -0.07928488 0.058371887 -0.032463368 0.012472737 -0.05452724 -0.081751965
-0.10426816 0.044046972 -0.01565602 -0.1511686 -0.19745809 -0.04422969 0.015977385 -0.23567122
-0.22854207 -0.21342833 -0.0923841 -0.13969964 -0.18732661 -0.24204496 -0.31021693 -0.00529796
-1.7244434e-05 -0.15266308 -0.3592996 -0.48253614 -0.07414592 -0.08247804 0.016232397 0.071759924
0.10477645 -0.20513618 -0.004869978 -0.14550631 0.070291996 0.20956184 -0.11194637 -0.070851214
-0.13401222 0.017912392 0.15982974 -0.025488125 -0.014704657 -0.111182086 0.07038082 0.22624956
-0.06189753 -0.06301074 -0.058956973 0.12720324 0.30565846 0.24360819 0.17208385 0.04381088
-0.16068025 -0.0502769 0.14822969 0.14253338 -0.05724813 -0.11704036 -0.32948837 0.18196529
0.12512583 -0.16356848 -0.29858854 -0.30570057 -0.06861602 -0.259939 -0.27307457 -0.3867023
-0.31198296 -0.14424519 -0.31055644 -0.36006308 -0.34433362 -0.25563633 -0.083109185 -0.27451277
-0.0285079 -0.006324601 0.014967175 -0.0505865 -0.23758666 -0.30499256 -0.2914265 -0.019095225
-0.03790731 -0.24674846 -0.23765041 -0.18917614 -0.04259112 0.012915543 -0.050340798 -0.10466148
-0.08313987 -0.07490306 0.2165538 -0.048838172 0.06472412 0.025393525 0.04786977 0.22890107
-0.011274699 0.0020634616 -0.066452034 -0.20841269 0.062082138 -0.18914756 0.058370203 0.006300272
-0.13316368 0.066684745 -0.114922464 -0.0017518606 0.043434687 0.0021625226 0.038491223 -0.044284258
-0.012787832 0.09489825 -0.04982975 0.053735066 0.047099557 0.06150343 0.034086756 0.19891125
0.011552757 -0.17137584 -0.120216474 0.2190925 0.26480258 0.2822545 0.51133156 -0.05433673
-0.28719562 0.10464305 0.17633806 0.43514353 0.6069117 -0.16168584 -0.2489083 0.15140353
0.021195592 0.15984006 0.39203316 -0.23320481 0.14654422 0.09789892 0.06819433 0.1510591
0.121801 0.11816296 0.012782144 -0.27511245 -0.21898845 0.18603945 0.080011144 0.04520505
0.076418 -0.20330435 -0.26453745 -0.13160266 0.025005123 0.11589282 0.07439212 -0.4037165
-0.020297293 -0.11267248 -0.026444107 0.055900797 -0.13880984 0.032228626 -0.051659245 0.0068094917
-0.048749924 -0.0027641128 -0.19694427 -0.16694386 -0.061875895 0.001744256 0.1278067 -0.089389265
00000000: 73d2 b1bc 5e9d 74bd 62ad e4bd fd0d 7fbb
00000010: 788e 4abd 103d 4d3e d185 9a3d a0ce b1bc
00000020: efdb 0d3e a2ca 31bd 55f4 103e bc4f 0e3e
00000030: 3ab5 4b3d dc21 463e f0c8 5e3e 71ea c03d
00000040: fe61 903e 5bbd 323e 6c18 7f3e a5ee 683e
00000050: f619 fd3d d873 883e 1d52 693e 41be b43e
00000060: b64f 513e c24e 913c 2051 6a3d 86c2 f7bd
00000070: b925 60bb 3bc3 adbd cf9b babc b1ee 163e
00000080: 07ab fcbc a615 6a3d 8b56 fbbd 62ea 223e
00000090: 961a 9e3d 164d 85bc 37b8 dc3c 050c 82bd
000000a0: 01ca 0c3e 2dc5 8a3d 5682 de3c b9f9 8c3d
000000b0: 02c1 92be e6b7 1abc b184 bf3d 97ba 19be
000000c0: a812 70bd aff2 57be 14b2 ba3d 2c25 06bd
000000d0: 25d0 f8bd 8f4a 03bd 5e79 0fbe 4a87 d23d
000000e0: b66c 87bb 5292 6e3d bb07 ef3d d596 4a3d
000000f0: 4eb7 fcbd 3717 073e 7434 f53d b6b2 363e
00000100: 4de2 a9bc 43a7 c8bd a75f 80bb 4814 553d
00000110: 6991 0c3e 016f 11be 5dcc a3bc 05ec 6fbc
00000120: b9f5 983d 9674 1b3e 1c60 a2bd 5c17 6f3d
00000130: 4ff8 04bd 735a 4c3c f557 5fbd 936d a7bd
00000140: 8c8a d5bd 996a 343d 0e41 80bc f1cb 1abe
00000150: 7432 4abe 312a 35bd 01e3 823c cc53 71be
00000160: ef06 6abe f58c 5abe e033 bdbd 6c0d 0fbe
00000170: 8cd2 3fbe a2da 77be c1d4 9ebe 829a adbb
00000180: 24a8 90b7 b653 1cbe 1ef6 b7be fa0e f7be
00000190: d1d9 97bd 3fea a8bd cef9 843c def6 923d
000001a0: 0995 d63d 380f 52be 5694 9fbb 9bff 14be
000001b0: 40f5 8f3d 6197 563e 2344 e5bd 711a 91bd
000001c0: 803a 09be 02bd 923c 68aa 233e 79cc d0bc
000001d0: cdeb 70bc 6fb3 e3bd d223 903d f7ad 673e
000001e0: 4488 7dbd c60b 81bd de7c 71bd 9141 023e
000001f0: 447f 9c3e 6d74 793e c036 303e 0a73 333d
00000200: 5d89 24be 27ef 4dbd 86c9 173e 45f4 113e
00000210: 047d 6abd dbb2 efbd b3b2 a8be 1c55 3a3e
00000220: fc20 003e 7f7e 27be 99e0 98be c984 9cbe
00000230: 8e86 8cbd b916 85be 6ed0 8bbe d8fd c5be
00000240: 3bbc 9fbe 03b5 13be 4101 9fbe 305a b8be
00000250: 7f4c b0be c4e2 82be 2635 aabd f08c 8cbe
00000260: 6689 e9bc 993e cfbb e238 753c ca33 4fbd
00000270: eb49 73be fc27 9cbe db35 95be 976d 9cbc
00000280: b244 1bbd a1ab 7cbe a15a 73be 64b7 41be
00000290: 0774 2ebd b79b 533c 2732 4ebd c258 d6bd
000002a0: 3c45 aabd c766 99bd 48c0 5d3e 890a 48bd
000002b0: 148e 843d 1506 d03c 1813 443d 0b65 6a3e
000002c0: 84b9 38bc 243b 073b 0118 88bd 236a 55be
000002d0: d749 7e3d e6af 41be 9815 6f3d 8372 ce3b
000002e0: 0f5c 08be 0392 883d 785c ebbd b09e e5ba
000002f0: 92e8 313d 1cb9 0d3b f9a8 1d3d 6963 35bd
00000300: 0e84 51bc 045a c23d 481a 4cbd 4d19 5c3d
00000310: 77eb 403d 05eb 7b3d 8e9e 0b3d 64af 4b3e
00000320: c647 3d3c 267d 2fbe 0e34 f6bd c959 603e
00000330: 3494 873e a983 903e a0e6 023f 3190 5ebd
00000340: 4e0b 93be 184f d63d f791 343e 22cb de3e
00000350: 915e 1b3f f990 25be d1e1 7ebe 8709 1b3e
00000360: 61a2 ad3c 1dad 233e 92b8 c83e 3ecd 6ebe
00000370: b00f 163e 3b7f c83d 78a9 8b3d 3daf 1a3e
00000380: cd72 f93d 6cff f13d 336c 513c 8adb 8cbe
00000390: 823e 60be 2081 3e3e e2dc a33d ee28 393d
000003a0: 0a81 9c3d 042f 50be 7471 87be d9c2 06be
000003b0: 8bd7 cc3c 3759 ed3d e55a 983d eeb3 cebe
000003c0: 8246 a6bc d4c0 e6bd 50a1 d8bc 3cf8 643d
000003d0: 2b24 0ebe 2a02 043d a598 53bd 2822 df3b
000003e0: 00ae 47bd 1e26 35bb c2ab 49be 55f3 2abe
000003f0: 9471 7dbd 859f e43a c2df 023e b811 b7bd

bias f4 [16]
0.22988373 0.026567742 0.22310713 0.10408506 0.21425983 -0.6777238 -1.133195 0.85989
-0.13138986 0.5716542 0.09914358 1.6993746 -0.5144049 0.5819918 -0.6727841 -0.42035913
00000000: a466 6b3e 98a4 d93c 3276 643e 8c2a d53d
00000010: ee66 5b3e 4f7f 2dbf 890c 91bf c021 5c3f
00000020: 108b 06be ee57 123f ca0b cb3d 1b85 d93f
00000030: 0ab0 03bf 6afd 143f 943b 2cbf 5039 d7be

weight f4 [120, 400]
-0.079195 0.093293734 0.019843064 0.010482574 -0.053327747 0.046432406 0.093496114 0.11938893
-0.01141656 -0.07763215 -0.05419726 0.0020129392 -0.0058073336 0.07886934 -0.01683572 -0.05393432
-0.08193334 0.061324447 0.053600676 -0.07800986 -0.14683764 -0.03900037 -0.058995213 -0.03228181
-0.040109772 -0.036248565 0.035144884 0.122628406 0.057600927 0.05561512 -0.07983527 -0.07697127
0.021274254 0.10948294 0.1417579 -0.013992412 -0.025066428 0.063971296 0.023575408 -0.017711172
0.14678124 0.099189654 -0.060961887 0.015456018 -0.04711854 0.06984962 0.07488023 -0.023989279
-0.017018016 -0.036121637 0.09654823 -0.023095962 -0.06796838 0.008093613 0.064768605 0.15779667
-0.09490084 -0.026737848 0.032266684 0.060451712 0.119473346 -0.003964231 -0.025229583 0.072359286
0.03502235 0.065101765 -0.051314194 -0.062996134 0.03257654 -0.023415685 0.009444642 -0.12352123
-0.09680632 -0.044790182 0.009412446 0.09041806 -0.022717185 -0.07059929 -0.029357197 0.068918645
-0.07929448 -0.07877214 -0.13136001 0.031374928 0.05373412 -0.050540093 -0.104756676 -0.080549106
0.050122924 0.07527953 -0.0055978326 -0.10362242 -0.057710774 0.012957924 -0.025942776 0.07569351
-0.046358872 -0.037068874 0.044987533 0.029264439 -0.13005325 0.06639859 0.06744999 -0.0041853734
0.08796867 -0.08608885 0.0292177 -0.034474544 -0.14465876 0.04642532 -0.029351568 -0.043300502
-0.056817327 -0.11113763 0.006158604 -0.080008656 0.004383932 -0.0038808368 -0.13755314 0.009253442
0.022747835 -0.019257313 0.020128291 -0.0044645313 0.124493554 0.011661263 -0.00360688 -0.07140492
-0.12727758 -0.081364416 0.057236698 -0.03669251 -0.02484614 -0.054623075 -0.039826583 0.009411244
-0.004306622 -0.0754721 -0.04879011 -0.013516493 -0.02804729 -0.085078225 -0.061800107 -0.03902159
-0.08611743 -0.030325387 -0.07836739 -0.13551062 -0.015000443 -0.07828647 0.021922814 0.015489855
-0.0538245 0.056872506 0.108067185 -0.058231402 -0.14987236 -0.053197257 -0.10942075 -0.0086440565
0.0049113748 0.038985576 0.06658138 0.010042104 0.045869585 0.04564399 -0.021110198 0.014543347
0.07739407 0.016883416 0.16788353 0.059486937 -0.01674497 0.026155751 0.021805406 -0.03871824
0.0123342415 -0.049720123 0.035835296 -0.12832224 0.08187121 0.13623159 0.060013596 -0.000608758
-0.11724546 0.052814275 0.074666545 0.13020395 0.009638271 -0.047525827 0.039631546 0.12043271
0.08974913 -0.043513592 -0.15299176 -0.0323536 -0.0022505606 -0.028502788 -0.10715023 -0.10723597
-0.010329099 0.050739773 -0.0010473229 0.036038853 0.048075005 -0.003041378 0.013527668 -0.029393023
-0.023149367 0.10132098 -0.015043407 0.006138757 -0.010538041 -0.03977117 -0.07331909 -0.005026305
-0.036215078 0.003597213 -0.034210358 0.0429122 0.046726458 -0.053443678 -0.009142758 -0.017710207
0.0012859446 -0.10055921 -0.03305452 -0.045115393 0.011267144 0.027818393 -0.003021577 -0.100394696
-0.0967267 -0.047227997 0.019754259 0.0054513044 0.012117382 0.057908624 -0.041371528 -0.0435753
-0.03714089 -0.03693289 0.030158356 -0.10978333 -0.013154479 -0.046830367 -0.023004731 0.0028683569
-0.03356279 -0.11164125 0.109595664 -0.042349845 -0.049410775 -0.02364003 0.1232756 0.06903909
00000000: fd30 a2bd c910 bf3d ec8d a23c 1abf 2b3c
00000010: 326e 5abd e82f 3e3d e47a bf3d 2f82 f43d
00000020: 860c 3bbc 9bfd 9ebd f2fd 5dbd 84eb 033b
00000030: 724b bebb 4086 a13d 10eb 89bc 3cea 5cbd
00000040: abcc a7bd 582f 7b3d 628c 5b3d a2c3 9fbd
00000050: 9b5c 16be dabe 1fbd f7a4 71bd ee39 04bd
00000060: 254a 24bd 6079 14bd 15f4 0f3d 9a24 fb3d
00000070: f3ee 6b3d aecc 633d ad80 a3bd 1da3 9dbd
00000080: 5847 ae3c 9738 e03d fc28 113e 6e40 65bc
00000090: 1c58 cdbc 6203 833d 3721 c13c 0517 91bc
000000a0: d24d 163e f223 cb3d 2cb3 79bd 3d3b 7d3c
000000b0: 5fff 40bd 510d 8f3d ce5a 993d 2a85 c4bc
000000c0: 5e69 8bbc 48f4 13bd 14bb c53d be33 bdbc
000000d0: 0233 8bbd 139b 043c 67a5 843d 7395 213e
000000e0: 5f5b c2bd 5509 dbbc 122a 043d 379c 773d
000000f0: 71ae f43d 61e6 81bb 45ae cebc 1b31 943d
00000100: 9873 0f3d 1354 853d d52e 52bd 1e04 81bd
00000110: fa6e 053d 40d2 bfbc b3bd 1a3c b3f8 fcbd
00000120: 6442 c6bd e975 37bd a936 1a3c 1b2d b93d
00000130: 6419 babc 5c96 90bd 817e f0bc 3825 8d3d
00000140: 2565 a2bd 4a53 a1bd 3d83 06be ff82 003d
00000150: 4f18 5c3d 2103 4fbd ab8a d6bd eef6 a4bd
00000160: b24d 4d3d 272c 9a3d 066e b7bb fe37 d4bd
00000170: 2262 6cbd 794d 543c f285 d4bc 3305 9b3d
00000180: cde2 3dbd 88d5 17bd d944 383d fabb ef3c
00000190: ae2c 05be fcfb 873d 3823 8a3d 7525 89bb
000001a0: eb28 b43d 5a4f b0bd f559 ef3c 2e35 0dbd
000001b0: 6d21 14be 7a28 3e3d b372 f0bc de5b 31bd
000001c0: 49b9 68bd 209c e3bd 1dce c93b 94db a3bd
000001d0: 16a7 8f3b a355 7ebb bbda 0cbe c09b 173c
000001e0: ab59 ba3c 83c1 9dbc 16e4 a43c 344b 92bb
000001f0: 7af6 fe3d e20e 3f3c 6861 6cbb be3c 92bd
00000200: 0e55 02be 63a2 a6bd 0771 6a3d e34a 16bd
00000210: 228a cbbc 72bc 5fbd 3321 23bd 9e31 1a3c
00000220: 901e 8dbb 1e91 9abd 23d8 47bd 4874 5dbc
00000230: 6ec3 e5bc 7e3d aebd 1c22 7dbd 1ad5 1fbd
00000240: 565e b0bd f26c f8bc 157f a0bd 4cc3 0abe
00000250: 6bc4 75bc a854 a0bd 7997 b33c 29c9 7d3c
00000260: 1477 5cbd 25f3 683d 5452 dd3d 0d84 6ebd
00000270: 2478 19be 5ee5 59bd fc17 e0bd cd9f 0dbc
00000280: 99ef a03b 57af 1f3d d25b 883d a387 243c
00000290: bfe1 3b3d 31f5 3a3d 4bef acbc 3847 6e3c
000002a0: c880 9e3d 174f 8a3c a9e9 2b3e 93a8 733d
000002b0: bf2c 89bc 9644 d63c 40a1 b23c 0497 1ebd
000002c0: 8f15 4a3c 54a7 4bbd 08c8 123d e866 03be
000002d0: 18ac a73d 4b80 0b3e d1d0 753d 0f95 1fba
000002e0: 631e f0bd c853 583d c6ea 983d 2f54 053e
000002f0: d7e9 1d3c 71aa 42bd b054 223d 6da5 f63d
00000300: 64ce b73d 4f3b 32bd dfa9 1cbe 3585 04bd
00000310: 247e 13bb ae7e e9bc 9471 dbbd 889e dbbd
00000320: 623b 29bc 82d4 4f3d 5346 89ba 7a9d 133d
00000330: 4cea 443d db51 47bb 27a3 5d3c a3c9 f0bc
00000340: bea3 bdbc 6081 cf3d 9f78 76bc a027 c93b
00000350: bfa7 2cbc 18e7 22bd 5228 96bd b4b3 a4bb
00000360: 4356 14bd 38bf 6b3b 2920 0cbd b4c4 2f3d
00000370: 3e64 3f3d c2e7 5abd 82cb 15bc ff14 91bc
00000380: 248d a83a fdf1 cdbd 2d64 07bd ebca 38bd
00000390: d499 383c 66e3 e33c a605 46bb bc9b cdbd
000003a0: a618 c6bd 2572 41bd afd3 a13c dba0 b23b
000003b0: fc87 463c 9831 6d3d 3175 29bd 047c 32bd
000003c0: 0c21 18bd f146 17bd a80e f73c 15d6 e0bd
000003d0: e285 57bc 33d1 3fbd 6b74 bcbc 0bfb 3b3b
000003e0: 2379 09bd 2ba4 e4bd b173 e03d 0877 2dbd
000003f0: f462 4abd bca8 c1bc eb77 fc3d 5e64 8d3d

bias f4 [120]
0.015353535 -0.07073946 -0.026567673 -0.07330427 0.07565472 0.3717871 0.21861637 -0.04847378
0.24328688 0.07231356 -0.06340705 0.29097858 -0.006194544 -0.1318461 0.3143538 -0.13109253
-0.037141148 -0.0185976 0.07353008 0.008570395 -0.028821267 -0.005566631 0.16284552 0.043255173
0.0180955 0.042012025 -0.00016929442 -0.010895483 -0.0717816 0.03232858 0.027209504 0.19694482
0.26567864 -0.115202494 -0.059165508 0.061389778 -0.08211412 0.013669094 0.20168106 0.012132055
-0.047524005 0.059165295 0.053576034 -0.01676904 0.027801218 0.13330756 -0.10734749 -0.09001295
0.2914048 0.16741373 -0.0219583 0.011425082 -0.0867632 -0.14105575 0.14828014 0.25042453
0.17119592 0.017947108 -0.02357827 -0.044763602 -0.032026183 -0.061450426 0.26189455 0.17106915
0.011433736 -0.049586456 -0.009674938 -0.048870005 3.9793333e-05 -0.08441219 -0.07579433 -0.11767095
0.033603147 0.27206463 0.026416061 -0.078357436 0.06259272 0.19099717 0.023354387 0.121917605
-0.00041216027 0.010254415 -0.0018746795 0.027955137 -0.23200409 0.03795114 0.044650372 -0.04421792
0.024590177 0.085394405 0.0036734194 -0.05097314 0.028340891 0.030865885 -0.29105297 -0.15981178
0.06246524 -0.08153244 0.085544504 -0.10141382 -0.15584336 0.05678676 0.0995155 -0.044584002
0.044150498 -0.029354466 0.10105225 0.038766492 -0.16069157 -0.022882195 0.008328723 0.03070646
0.1153442 0.042042714 0.27025497 0.010025421 0.06115945 -0.078050315 0.0137056215 0.098358035
00000000: 658d 7b3c dadf 90bd 73a4 d9bc 8d20 96bd
00000010: ddf0 9a3d e15a be3e f8dc 5f3e 718c 46bd
00000020: 3220 793e 2219 943d 8edb 81bd 25fb 943e
00000030: 9afb cabb aa02 07be fbf2 a03e 1f3d 06be
00000040: 5121 18bd fe59 98bc f096 963d d86a 0c3c
00000050: 941a ecbc 4968 b6bb fac0 263e 562c 313d
00000060: 043d 943c cd14 2c3d a084 31b9 f882 32bc
00000070: 3b02 93bd f96a 043d 77e6 de3c e7ab 493e
00000080: 0807 883e 49ef ebbd 8857 72bd d973 7b3d
00000090: 732b a8bd 56f4 5f3c 7b85 4e3e 87c5 463c
000000a0: 88a8 42bd 4f57 723d 8b72 5b3d 3a5f 89bc
000000b0: 61bf e33c c781 083e 00d9 dbbd b658 b8bd
000000c0: 0333 953e 816e 2b3e e5e1 b3bc 4430 3b3c
000000d0: e8b0 b1bd eb70 10be c0d6 173e a537 803e
000000e0: fc4d 2f3e d005 933c 3727 c1bc 0a5a 37bd
000000f0: e32d 03bd 71b3 7bbd 0b17 863e c02c 2f3e
00000100: 9154 3b3c 2b1b 4bbd a283 1ebc ea2b 48bd
00000110: c4e7 2638 4ce0 acbd 0f3a 9bbd 78fd f0bd
00000120: 74a3 093d 0e4c 8b3e 7f66 d83c dd79 a0bd
00000130: 9d30 803d c394 433e b351 bf3c f0af f93d
00000140: 3717 d8b9 2202 283c ceb7 f5ba 2c02 e53c
00000150: 7b92 6dbe a872 1b3d 4fe3 363d da1d 35bd
00000160: 5771 c93c 43e3 ae3d c0bd 703b 36c9 50bd
00000170: 282b e83c 74da fc3c e504 95be b3a5 23be
00000180: 8ddb 7f3d 7bfa a6bd f531 af3d 0db2 cfbd
00000190: 6795 1fbe 3c99 683d c8ce cb3d b79d 36bd
000001a0: 27d7 343d c778 f0bc 7bf4 ce3d 9dc9 1e3d
000001b0: 558c 24be 7173 bbbc 3275 083c 1d8c fb3c
000001c0: 9439 ec3d fb34 2c3d dc5e 8a3e aa41 243c
000001d0: 5582 7a3d d8d8 9fbd 8b8d 603c f06f c93d

weight f4 [84, 120]
-0.05069084 -0.042484496 -0.06527692 0.023052843 0.06702191 -0.0015688626 0.04958207 -0.022536
-0.01522313 -0.045772787 0.044233803 0.084029 -0.026116364 -0.040549576 -0.035584662 -0.01745638
-0.020605866 -0.06630364 -0.019859986 -0.038397152 -0.09605844 0.08258459 0.063662626 -0.044839043
-0.047146805 0.0658218 0.12716793 -0.03791556 -0.095040224 0.037277926 0.0014501929 0.08550319
-0.08142294 0.03939311 0.10117466 -0.03457261 -0.009845934 0.07753703 0.030288495 -0.077755764
0.08919351 0.03680744 -0.06530032 0.006736818 0.09395117 0.016993076 0.037152123 -0.06346488
-0.04391467 -0.101039074 0.074822344 -0.092390604 -0.009085325 0.061644945 0.025023947 0.01927598
0.0539156 0.10194663 -0.0832957 0.041001495 0.11239304 0.013029247 -0.10354483 -0.05004341
0.013850988 -0.05309275 -0.067580044 -0.09324243 0.08010926 -0.13969038 0.06236173 -0.14737226
-0.04437597 0.048239753 -0.10088827 -0.039650466 0.011883501 0.031449288 -0.109083384 0.03308223
0.05638512 -0.012926096 -0.05907498 0.010492942 -0.036555827 -0.04735937 -0.03945828 -0.023131108
0.018997628 -0.07740453 0.04869268 0.047096126 -0.09414673 -0.074811965 -0.12007773 -0.11648952
-0.01199253 0.07297742 -0.045037203 0.0356397 -0.0047507207 -0.029454798 -0.0072157313 -0.020477576
-0.08717161 -0.06503009 -0.104465224 -0.08181823 -0.12672065 -0.04972109 -0.05890787 -0.10785359
0.03999745 0.03920499 0.045981683 0.011532642 -0.06021981 0.0844384 0.0061436812 0.063425854
0.0067659486 0.024238346 -0.03076076 0.0069794273 -0.03956941 -0.026957236 -0.0026605623 0.03509306
-0.0889124 0.0031402821 -0.006348396 0.04771857 -0.04053631 -0.09572099 0.0014966964 -0.086184666
0.051036913 -0.019773405 -0.07059119 -0.07421976 -0.055968158 0.1253592 0.06634803 0.028524434
-0.07442805 0.021041729 0.13276704 0.02161914 0.03428738 -0.06735427 -0.039656136 -0.09566547
-0.07499216 0.009385869 0.10727276 0.011864984 -0.056553215 0.11473547 -0.020863542 -0.09348645
-0.019401811 0.057452295 -0.02606009 -0.0083983475 0.058955986 -0.13946882 -0.06489495 -0.073566794
0.0046350374 0.0468385 0.03512321 0.001221369 -0.048893906 -0.002651827 0.04035391 0.014260288
-0.020172432 -0.066882744 0.012130487 0.046060998 0.09802794 -0.068603665 -0.06886621 -0.030254323
0.03826699 -0.0077108513 0.07549475 -0.058024958 -0.05786476 -0.021383468 0.08322847 -0.10109776
-0.011865884 0.03454698 0.05802058 0.05688185 -0.037577506 0.066462845 -0.012575297 0.086209945
0.057282727 -0.02515597 -0.021706762 -0.026762763 0.026242698 -0.05918838 -0.09171679 -0.048415527
-0.025483364 0.014999906 -0.039366394 0.062247284 -0.043829363 0.061017916 0.0184527 -0.11555126
-0.02505689 0.052842554 0.083143696 -0.065732494 -0.056111068 0.019410493 0.0185247 -0.089743994
0.092944115 0.0025512995 -0.05741412 -0.0845957 0.019368984 -0.08641849 0.012994449 -0.027645845
0.006732301 -0.005594415 0.0017676845 0.047796395 -0.011763866 -0.06525801 0.03138031 -0.010906289
-0.023616234 -3.729381e-05 0.06648989 -0.07570328 0.051732752 0.0501682 -0.05054855 -0.099946424
0.0044238423 0.068381175 0.04460801 0.012686825 0.07917938 -0.00077599636 -0.004237547 0.048105996
00000000: 33a1 4fbd 3904 2ebd e8af 85bd 51d9 bc3c
00000010: c842 893d 4ba2 cdba 9216 4b3d 6b9d b8bc
00000020: 6f6a 79bc 3f7c 3bbd 812e 353d 6517 ac3d
00000030: fcf1 d5bc 5017 26bd 39c1 11bd af00 8fbc
00000040: a2cd a8bc 34ca 87bd 69b1 a2bc 5546 1dbd
00000050: 4aba c4bd 1c22 a93d 8d61 823d 25a9 37bd
00000060: 021d 41bd 94cd 863d 4f38 023e 594d 1bbd
00000070: 73a4 c2bd bdb0 183d 6614 be3a 4c1c af3d
00000080: 12c1 a6bd ab5a 213d a934 cf3d 029c 0dbd
00000090: d750 21bc bccb 9e3d 941f f83c 6a3e 9fbd
000000a0: 16ab b63d 66c3 163d 2dbc 85bd 86c0 dc3b
000000b0: 7969 c03d 1035 8b3c d32c 183d e0f9 81bd
000000c0: dedf 33bd 93ed cebd 753c 993d 4937 bdbd
000000d0: 9dda 14bc 697f 7c3d 05ff cc3c a9e8 9d3c
000000e0: 9bd6 5c3d 65c9 d03d f096 aabd 2ff1 273d
000000f0: 522e e63d 9f78 553c 500f d4bd 52fa 4cbd
00000100: 41ef 623c c977 59bd 6867 8abd e3f5 bebd
00000110: 5310 a43d ff0a 0fbe 036f 7f3d c1e8 16be
00000120: 94c3 35bd 0c97 453d 829e cebd 8768 22bd
00000130: 04b3 423c f8d0 003d 1c67 dfbd 3b81 073d
00000140: 15f4 663d fac7 53bc 9bf8 71bd 97ea 2b3c
00000150: 90bb 15bd e6fb 41bd 019f 21bd 737d bdbc
00000160: eaa0 9b3c 4486 9ebd fa71 473d dee7 403d
00000170: 00d0 c0bd 0437 99bd 50eb f5bd 0f92 eebd
00000180: 517c 44bc 3075 953d ee78 38bd effa 113d
00000190: efab 9bbb 304b f1bc f171 ecbb 97c0 a7bc
000001a0: 0787 b2bd 7f2e 85bd ddf1 d5bd 5190 a7bd
000001b0: 0fc3 01be 57a8 4bbd 6149 71bd 58e2 dcbd
000001c0: 5ed4 233d 6995 203d 4a57 3c3d 68f3 3c3c
000001d0: 0ca9 76bd 0aee ac3d ef50 c93b 6ae5 813d
000001e0: e4b4 dd3b 7f8f c63c fdfd fbbc aeb3 e43b
000001f0: 8913 22bd 6cd5 dcbc d45c 2ebb bebd 0f3d
00000200: b417 b6bd 31cd 4d3b 3506 d0bb 8c74 433d
00000210: 6709 26bd 5e09 c4bd cc2c c43a 9681 b0bd
00000220: 150c 513d d6fb a1bc 1d92 90bd 8800 98bd
00000230: de3e 65bd 2a5e 003e 7ae1 873d 13ac e93c
00000240: bc6d 98bd b45f ac3c 15f4 073e 9f1a b13c
00000250: ec70 0c3d 09f1 89bd 796e 22bd 42ec c3bd
00000260: 7d95 99bd 30c7 193c d2b1 db3d 5a65 423c
00000270: 58a4 67bd 6efa ea3d 05ea aabc d375 bfbd
00000280: 8cf0 9ebc 1953 6b3d f87b d5bc 3999 09bc
00000290: d57b 713d ead0 0ebe a5e7 84bd 30aa 96bd
000002a0: 83e1 973b bad9 3f3d 5bdd 0f3d 5816 a03a
000002b0: fa44 48bd 46ca 2dbb 244a 253d fca3 693c
000002c0: a840 a5bc d2f9 88bd f3be 463c 75aa 3c3d
000002d0: dfc2 c83d 1480 8cbd ba09 8dbd ead7 f7bc
000002e0: d9bd 1c3d 4fab fcbb fe9c 9a3d 94ab 6dbd
000002f0: 9903 6dbd 622c afbc b073 aa3d 580c cfbd
00000300: 2069 42bc 2281 0d3d fda6 6d3d f1fc 683d
00000310: dfea 19bd ac1d 883d 9e08 4ebc d78e b03d
00000320: 4ba1 6a3d e513 cebc 61d2 b1bc 953d dbbc
00000330: edfa d63c 846f 72bd 03d6 bbbd 5c4f 46bd
00000340: 7dc2 d0bc 2ac2 753c a83e 21bd 02f7 7e3d
00000350: 6b86 33bd eced 793d 1e2a 973c 24a6 ecbd
00000360: 1b44 cdbc 6f71 583d 3e47 aa3d c29e 86bd
00000370: b8d4 65bd c102 9f3c 1dc1 973c b3cb b7bd
00000380: 7c59 be3d b433 273b 112b 6bbd 8340 adbd
00000390: b4ab 9e3c 2dfc b0bd abe6 543c 8a79 e2bc
000003a0: a29a dc3b 5b51 b7bb a6b1 e73a 27c6 433d
000003b0: 3bbd 40bc fea5 85bd a488 003d 4bb0 32bc
000003c0: d576 c1bc ec6b 1cb8 da2b 883d 520a 9bbd
000003d0: b9e5 533d 2c7d 4d3d ff0b 4fbd b6b0 ccbd
000003e0: e1f5 903b 6e0b 8c3d e4b6 363d 67dc 4f3c
000003f0: cc28 a23d 3c6c 4bba 1fdb 8abb cb0a 453d

bias f4 [84]
0.124638356 -0.042580687 -0.09200902 -0.050655283 -0.0757667 -0.051195502 -0.06364975 0.5562666
0.1937226 0.1576956 -0.014474675 0.010348972 -0.00912876 0.18476896 0.28089952 -0.088292584
0.25988024 0.015745774 0.14704293 0.2857992 -0.118094765 0.017267134 0.39998543 -0.07095409
-0.10863849 0.12985072 -0.09233377 -0.15062003 0.15751275 0.38002968 0.02749852 0.21800949
0.39332902 -0.08617888 0.124518 -0.056636106 -0.0038500782 -0.0542728 0.06930444 0.29811755
0.78580874 0.426363 0.0254683 -0.108810864 0.07555276 0.26767766 -0.005188904 -0.052211266
-0.0249684 -0.027306795 -0.02584302 0.21040718 0.007832627 0.16136867 0.054500375 0.2495206
-0.0252489 -0.023835987 -0.10974873 -0.055805705 -0.05568618 0.13872364 0.1975569 -0.03506047
0.036048856 0.07816791 0.48388115 -0.059735056 0.29244876 -0.034555383 -0.09950707 0.14295143
0.4309227 0.21316822 0.034717295 0.02418998 0.11122278 0.1506691 -0.037882544 0.58516717
-0.017693987 0.25353822 0.09502104 0.3527257
00000000: 6542 ff3d 1669 2ebd 3a6f bcbd ea7b 4fbd
00000010: 922b 9bbd 60b2 51bd cd5a 82bd 7d67 0e3f
00000020: 385f 463e f57a 213e 3027 6dbc bc8e 293c
00000030: cb90 15bc 1334 3d3e 10d2 8f3e bed2 b4bd
00000040: 060f 853e 48fd 803c 6c92 163e 4654 923e
00000050: abdb f1bd ce73 8d3c e4ca cc3e 6150 91bd
00000060: db7d debd 96f7 043e 7d19 bdbd 233c 1abe
00000070: 064b 213e 4093 c23e 9444 e13c e13d 5f3e
00000080: 6c62 c93e 8d7e b0bd 4b03 ff3d 43fb 67bd
00000090: 9851 7cbb 284d 5ebd 7cef 8d3d dda2 983e
000000a0: c32a 493f 404c da3e e5a2 d03c 3bd8 debd
000000b0: 68bb 9a3d 0c0d 893e ae07 aabb 7bdb 55bd
000000c0: 888a ccbc 80b2 dfbc beb4 d3bc fb74 573e
000000d0: 6b54 003c d43d 253e c93b 5f3d 5482 7f3e
000000e0: c8d6 cebc b043 c3bc f1c3 e0bd 8694 64bd
000000f0: 3117 64bd 920d 0e3e 5b4c 4a3e 919b 0fbd
00000100: f7a7 133d 7f16 a03d 45bf f73e bfac 74bd
00000110: d8bb 953e f289 0dbd 5dca cbbd dc61 123e
00000120: e6a1 dc3e c548 5a3e b933 0e3d 112a c63c
00000130: c5c8 e33d 0049 1a3e ba2a 1bbd 84cd 153f
00000140: fbf2 90bc c3cf 813e 649a c23d 7798 b43e

weight f4 [10, 84]
-0.15637498 0.025314912 -0.006577942 -0.08133865 0.24164993 -0.11318529 0.054292846 -0.3398046
0.12888722 -0.066084474 -0.072448805 -0.068613924 0.07891647 0.108388424 -0.10410402 0.012698198
-0.10419556 0.14608946 0.20330064 0.11417725 0.15843754 0.158829 -0.2514835 0.040908076
-0.060484473 0.18648928 0.011039195 -0.09916646 0.115060374 -0.34440297 0.15434939 0.018258395
0.0010582064 0.0038344595 0.13056165 -0.078132205 0.19852704 0.12416801 0.006147215 0.09596466
-0.3114737 0.21816984 0.13282427 -0.014220364 -0.050585225 -0.2163502 0.1696765 -0.08241527
0.01917147 0.07831661 0.0059834416 0.2858807 0.054338295 -0.10099817 -0.00052387774 0.19668403
0.21912807 -0.04323514 0.15041545 0.28068545 0.19701296 -0.008002336 -0.012099029 0.042195085
-0.05414997 0.19745693 0.14175966 0.09359411 -0.18257004 0.08688554 -0.05406838 -0.05220451
0.2725502 -0.12255309 0.09374091 0.1751923 -0.04220354 -0.05304044 0.10662635 0.17659529
0.11733211 -0.33616418 -0.22616719 0.1795006 0.082390375 0.088186584 0.028155314 0.091166526
-0.10961486 -0.074602604 0.15782759 -0.1001233 -0.07734414 0.017691368 -0.090737395 0.07630149
-0.08093383 -0.16976428 -0.17638865 -0.019512083 -0.27291018 -0.09934728 -0.18116674 0.028844394
0.044627845 0.39554393 -0.01817201 -0.0012069613 0.0040886984 -0.044130314 -0.09930663 0.22623445
0.119907655 -0.18411268 0.08569973 0.24022965 -0.22600505 -0.10377389 0.049720865 0.011557056
0.18366395 0.068325825 0.18012108 0.12599485 -0.44303784 0.035603266 -0.033278227 -0.06308606
0.09194171 -0.20416053 -0.22403128 0.0035047112 -0.015308576 0.024560582 0.20315233 -0.0040738154
0.116565876 -0.045672268 -0.005944153 0.31009966 -0.0724242 0.32603192 0.03993108 -0.2483204
-0.18898956 -0.24120887 0.12324927 0.05940613 0.14040087 -0.08479902 -0.30473045 0.09914848
0.22126976 0.019323044 0.24682029 0.10636136 0.28928736 0.029080529 0.14230607 0.13939932
0.23467198 -0.1640969 0.020335985 -0.30729374 -0.0673575 0.1871443 -0.33020115 -0.07546197
0.11726373 -0.0043772357 0.07175228 -0.02878925 0.07470214 0.0061187767 -0.18880455 0.12567456
0.19820614 0.22355656 0.19666478 -0.12099347 -0.028966121 0.08203374 0.0022131728 0.108925916
0.14355339 0.100493446 0.24331677 -0.31412473 0.119067065 -0.10691921 0.092548035 0.07022511
0.037096214 -0.10464607 0.04738496 0.042018205 -0.08071277 0.19941543 -0.16842298 -0.2193
0.24101418 -0.12422092 -0.023823531 -0.11414434 -0.032783844 -0.26062334 0.013406496 -0.07454064
0.03933207 -0.14334787 0.072185926 0.24822702 0.04309225 0.019288113 0.23168501 -0.0898141
0.13821432 -0.097638495 0.06780819 0.11697672 -0.21104321 -0.08835218 -0.07854821 -0.13416506
-0.030838963 -0.1352843 0.1621984 0.12385462 0.010760336 -0.08470533 -0.009856407 0.07182981
-0.04265066 0.026694572 0.25154793 -0.10248345 0.187404 -0.01172575 0.047613777 0.16685136
-0.018507127 0.22883342 -0.10798179 0.1002495 -0.060840227 -0.04416917 0.022423008 0.26491532
0.030472282 -0.015147321 0.13741007 -0.12105596 0.060308978 0.010026065 0.021265749 0.0969254
00000000: c320 20be 3861 cf3c c78b d7bb e194 a6bd
00000010: 1473 773e b0cd e7bd 2d62 5e3d defa adbe
00000020: 03fb 033e 4c57 87bd 0a60 94bd 7585 8cbd
00000030: f59e a13d c0fa dd3d 7d34 d5bd 1a0c 503c
00000040: 7b64 d5bd 7a98 153e 0b2e 503e c3d5 e93d
00000050: 733d 223e 12a4 223e 72c2 80be 3a8f 273d
00000060: 91be 77bd 0cf7 3e3e bddd 343c c917 cbbd
00000070: c6a4 eb3d 9655 b0be c40d 1e3e a192 953c
00000080: 84b3 8a3a 8e4b 7b3b f4b1 053e c703 a0bd
00000090: ac4a 4b3e cc4b fe3d 946e c93b 1f89 c43d
000000a0: 7b79 9fbe ea67 5f3e 1603 083e 88fc 68bc
000000b0: 7432 4fbd e88a 5dbe adbf 2d3e 56c9 a8bd
000000c0: 7d0d 9d3c 7564 a03d bf10 c43b f55e 923e
000000d0: d591 5e3d 21d8 cebd d754 09ba 8a67 493e
000000e0: 1c63 603e 5517 31bd 8206 1a3e 01b6 8f3e
000000f0: c4bd 493e 3b1c 03bc 013b 46bc c1d4 2c3d
00000100: 5ccc 5dbd 2632 4a3e 7229 113e 45ae bf3d
00000110: a4f3 3abe 0cf1 b13d ce76 5dbd 65d4 55bd
00000120: b38b 8b3e 1dfd fabd 3cfb bf3d 9c65 333e
00000130: 9fdd 2cbd ef40 59bd ea5e da3d 65d5 343e
00000140: d14b f03d b61d acbe 5f98 67be 01cf 373e
00000150: 49bc a83d 2b9b b43d f9a5 e63c 84b5 ba3d
00000160: c17d e0bd 40c9 98bd 8e9d 213e 720d cdbd
00000170: 9b66 9ebd 7ded 903c 87d4 b9bd f543 9c3d
00000180: a3c0 a5bd b0d6 2dbe 3a9f 34be ced7 9fbc
00000190: e2ba 8bbe 9676 cbbd c683 39be 144b ec3c
000001a0: b0cb 363d bc84 ca3e 78dd 94bc e732 9eba
000001b0: 7dfa 853b fdc1 34bd 4661 cbbd 01aa 673e
000001c0: 2592 f53d 0988 3cbe 5783 af3d c3fe 753e
000001d0: de6d 67be 6887 d4bd 1ba8 4b3d ce59 3d3c
000001e0: 6712 3c3e 69ee 8b3d a971 383e cb04 013e
000001f0: dbd5 e2be bbd4 113d c04e 08bd 4433 81bd
00000200: ef4b bc3d 750f 51be 7568 65be 4caf 653b
00000210: d2d0 7abc 4633 c93c 2a07 503e a47d 85bb
00000220: 17ba ee3d d812 3bbd 2bc7 c2bb 62c5 9e3e
00000230: 2453 94bd a8ed a63e c68e 233d b447 7ebe
00000240: 7b86 41be 75ff 76be 1d6a fc3d d853 733d
00000250: 3fc5 0f3e 1cab adbd a105 9cbe 5c0e cb3d
00000260: 8a94 623e 5c4b 9e3c 75be 7c3e fcd3 d93d
00000270: 791d 943e 4a3a ee3c afb8 113e b2be 0e3e
00000280: da4d 703e 0509 28be a797 a63c 9b55 9dbe
00000290: bbf2 89bd c1a2 3f3e 2010 a9be ce8b 9abd
000002a0: f727 f03d ea6e 8fbb dcf2 923d 6fd7 ebbc
000002b0: 70fd 983d 0580 c83b fb55 41be d5b0 003e
000002c0: 8df6 4a3e 03ec 643e 7e62 493e 6dcb f7bd
000002d0: 5c4a edbc 4e01 a83d e10a 113b 8d14 df3d
000002e0: a9ff 123e 82cf cd3d 0828 793e f5d4 a0be
000002f0: 6fd9 f33d 75f8 dabd d389 bd3d 2fd2 8f3d
00000300: 33f2 173d ae50 d6bd bb16 423d 481b 2c3d
00000310: bd4c a5bd 8f33 4c3e 1377 2cbe 2e90 60be
00000320: 6ccc 763e 8a67 febd 9129 c3bc 82c4 e9bd
00000330: 5a48 06bd 6c70 85be eba6 5b3c c3a8 98bd
00000340: aa1a 213d c9c9 12be 37d6 933d 392f 7e3e
00000350: 8081 303d 1b02 9e3c d63e 6d3e 74f0 b7bd
00000360: 0e88 0d3e b1f6 c7bd 05df 8a3d 7e91 ef3d
00000370: b61b 58be fdf1 b4bd e2dd a0bd 9162 09be
00000380: fea1 fcbc f887 0abe 5617 263e 7ea7 fd3d
00000390: 1f4c 303c fd79 adbd c47c 21bc 821b 933d
000003a0: 75b2 2ebd 93ae da3c e4ca 803e d8e2 d1bd
000003b0: d6e6 3f3e 5c1d 40bc aa06 433d 15db 2a3e
000003c0: 429c 97bc 4f53 6a3e 8f25 ddbd 9c4f cd3d
000003d0: 9a33 79bd bbea 34bd 75b0 b73c fba2 873e
000003e0: 02a1 f93c 782c 78bc 3ab5 0c3e 30ec f7bd
000003f0: 8c06 773d 5d44 243c 8235 ae3c d380 c63d

bias f4 [10]
-0.28288344 -0.5301598 -0.07715762 0.56824297 0.6651037 -0.21203488 0.19637637 -0.30629387
0.5678875 -0.18095607
00000000: 19d6 90be 8db8 07bf d004 9ebd 5f78 113f
00000010: 3c44 2a3f ac1f 59be e316 493e 8dd2 9cbe
00000020: 1361 113f 8c4c 39be
